…
        "model.to(device)"
      ],
      "metadata": {
        "colab": {
          "base_uri": "https://localhost:8080/"
        },
        "id": "NU0u30wbgAT5",
        "outputId": "23b65ac5-5f5c-4566-bf6f-d3dee925461d"
      },
      "execution_count": 5,
      "outputs": [
        {
          "output_type": "execute_result",
          "data": {
            "text/plain": [
              "VisionEncoderDecoderModel(\n",
              "  (encoder): ViTModel(\n",
              "    (embeddings): ViTEmbeddings(\n",
              "      (patch_embeddings): ViTPatchEmbeddings(\n",
              "        (projection): Conv2d(3, 768, kernel_size=(16, 16), stride=(16, 16))\n",
              "      )\n",
              "      (dropout): Dropout(p=0.0, inplace=False)\n",
              "    )\n",
              "    (encoder): ViTEncoder(\n",
              "      (layer): ModuleList(\n",
              "        (0-11): 12 x ViTLayer(\n",
              "          (attention): ViTAttention(\n",
              "            (attention): ViTSelfAttention(\n",
              "              (query): Linear(in_features=768, out_features=768, bias=True)\n",
              "              (key): Linear(in_features=768, out_features=768, bias=True)\n",
              "              (value): Linear(in_features=768, out_features=768, bias=True)\n",
              "              (dropout): Dropout(p=0.0, inplace=False)\n",
              "            )\n",
              "            (output): ViTSelfOutput(\n",
              "              (dense): Linear(in_features=768, out_features=768, bias=True)\n",
              "              (dropout): Dropout(p=0.0, inplace=False)\n",
              "            )\n",
              "          )\n",
              "          (intermediate): ViTIntermediate(\n",
              "            (dense): Linear(in_features=768, out_features=3072, bias=True)\n",
              "            (intermediate_act_fn): GELUActivation()\n",
              "          )\n",
              "          (output): ViTOutput(\n",
              "            (dense): Linear(in_features=3072, out_features=768, bias=True)\n",
              "            (dropout): Dropout(p=0.0, inplace=False)\n",
              "          )\n",
              "          (layernorm_before): LayerNorm((768,), eps=1e-12, elementwise_affine=True)\n",
              "          (layernorm_after): LayerNorm((768,), eps=1e-12, elementwise_affine=True)\n",
              "        )\n",
              "      )\n",
              "    )\n",
              "    (layernorm): LayerNorm((768,), eps=1e-12, elementwise_affine=True)\n",
              "    (pooler): ViTPooler(\n",
              "      (dense): Linear(in_features=768, out_features=768, bias=True)\n",
              "      (activation): Tanh()\n",
              "    )\n",
              "  )\n",
              "  (decoder): GPT2LMHeadModel(\n",
              "    (transformer): GPT2Model(\n",
              "      (wte): Embedding(50257, 768)\n",
              "      (wpe): Embedding(1024, 768)\n",
              "      (drop): Dropout(p=0.1, inplace=False)\n",
              "      (h): ModuleList(\n",
              "        (0-11): 12 x GPT2Block(\n",
              "          (ln_1): LayerNorm((768,), eps=1e-05, elementwise_affine=True)\n",
              "          (attn): GPT2Attention(\n",
              "            (c_attn): Conv1D()\n",
              "            (c_proj): Conv1D()\n",
              "            (attn_dropout): Dropout(p=0.1, inplace=False)\n",
              "            (resid_dropout): Dropout(p=0.1, inplace=False)\n",
              "          )\n",
              "          (ln_2): LayerNorm((768,), eps=1e-05, elementwise_affine=True)\n",
              "          (crossattention): GPT2Attention(\n",
              "            (c_attn): Conv1D()\n",
              "            (q_attn): Conv1D()\n",
              "            (c_proj): Conv1D()\n",
              "            (attn_dropout): Dropout(p=0.1, inplace=False)\n",
              "            (resid_dropout): Dropout(p=0.1, inplace=False)\n",
              "          )\n",
              "          (ln_cross_attn): LayerNorm((768,), eps=1e-05, elementwise_affine=True)\n",
              "          (mlp): GPT2MLP(\n",
              "            (c_fc): Conv1D()\n",
              "            (c_proj): Conv1D()\n",
              "            (act): NewGELUActivation()\n",
              "            (dropout): Dropout(p=0.1, inplace=False)\n",
              "          )\n",
              "        )\n",
              "      )\n",
              "      (ln_f): LayerNorm((768,), eps=1e-05, elementwise_affine=True)\n",
              "    )\n",
              "    (lm_head): Linear(in_features=768, out_features=50257, bias=False)\n",
              "  )\n",
              ")"
            ]
          },
          "metadata": {},
          "execution_count": 5
        }
      ]
    },
    {
      "cell_type": "code",
      "source": [
        "max_length = 16\n",
        "num_beams = 4\n",
        "\n",
        "gen_kwargs = {\"max_length\": max_length, \"num_beams\": num_beams}"
…
